…
  from ._conv import register_converters as _register_converters
Using TensorFlow backend.
##################### MODEL WITH W2V ONLY #####################
2018-12-06 11:44:06.836287: I tensorflow/core/platform/cpu_feature_guard.cc:140] Your CPU supports instructions that this TensorFlow binary was not compiled to use: AVX2 FMA
__________________________________________________________________________________________________
Layer (type)                    Output Shape         Param #     Connected to
==================================================================================================
input_1 (InputLayer)            (None, 40)           0
__________________________________________________________________________________________________
input_2 (InputLayer)            (None, 40)           0
__________________________________________________________________________________________________
sequential_1 (Sequential)       (None, 100)          1916000     input_1[0][0]
__________________________________________________________________________________________________
sequential_2 (Sequential)       (None, 100)          1916000     input_2[0][0]
__________________________________________________________________________________________________
concatenate_1 (Concatenate)     (None, 200)          0           sequential_1[1][0]
                                                                 sequential_2[1][0]
__________________________________________________________________________________________________
sequential_3 (Sequential)       (None, 1)            20201       concatenate_1[0][0]
==================================================================================================
Total params: 3,852,201
Trainable params: 3,852,201
Non-trainable params: 0
__________________________________________________________________________________________________
MODEL FIT 1 feat
Epoch 1/100000
 - 75s - loss: 0.2617 - acc: 0.9070
        map_score_filtered = 0.4741
…
Epoch 15/100000
 - 80s - loss: 0.0806 - acc: 0.9705
        map_score_filtered = 0.6479
Epoch 16/100000
 - 81s - loss: 0.0686 - acc: 0.9760
        map_score_filtered = 0.6501

0.6302429528780639
0.24109293911684676


##################### MODEL WITH W2V & POS #####################
__________________________________________________________________________________________________
Layer (type)                    Output Shape         Param #     Connected to
==================================================================================================
input_1 (InputLayer)            (None, 40)           0
__________________________________________________________________________________________________
input_3 (InputLayer)            (None, 40)           0
__________________________________________________________________________________________________
input_2 (InputLayer)            (None, 40)           0
__________________________________________________________________________________________________
input_4 (InputLayer)            (None, 40)           0
__________________________________________________________________________________________________
sequential_7 (Sequential)       (None, 40, 50)       1890900     input_1[0][0]
__________________________________________________________________________________________________
sequential_8 (Sequential)       (None, 40, 20)       360         input_3[0][0]
__________________________________________________________________________________________________
sequential_10 (Sequential)      (None, 40, 50)       1890900     input_2[0][0]
__________________________________________________________________________________________________
sequential_11 (Sequential)      (None, 40, 20)       360         input_4[0][0]
__________________________________________________________________________________________________
concatenate_2 (Concatenate)     (None, 40, 70)       0           sequential_7[1][0]
                                                                 sequential_8[1][0]
__________________________________________________________________________________________________
concatenate_3 (Concatenate)     (None, 40, 70)       0           sequential_10[1][0]
                                                                 sequential_11[1][0]
__________________________________________________________________________________________________
sequential_9 (Sequential)       (None, 100)          35100       concatenate_2[0][0]
__________________________________________________________________________________________________
sequential_12 (Sequential)      (None, 100)          35100       concatenate_3[0][0]
__________________________________________________________________________________________________
concatenate_4 (Concatenate)     (None, 200)          0           sequential_9[1][0]
                                                                 sequential_12[1][0]
__________________________________________________________________________________________________
sequential_13 (Sequential)      (None, 1)            20201       concatenate_4[0][0]
==================================================================================================
Total params: 1,982,021
Trainable params: 91,121
Non-trainable params: 1,890,900
__________________________________________________________________________________________________
Epoch 1/100000
 - 24s - loss: 0.2811 - acc: 0.9399
        map_score_filtered = 0.3810
…
