

##################### MODEL WITH W2V ONLY - NO UPDATE #####################
22:52.32
__________________________________________________________________________________________________
Layer (type)                    Output Shape         Param #     Connected to                     
==================================================================================================
input_1 (InputLayer)            (None, 40)           0                                            
__________________________________________________________________________________________________
input_2 (InputLayer)            (None, 40)           0                                            
__________________________________________________________________________________________________
sequential_1 (Sequential)       (None, 100)          1916000     input_1[0][0]                    
__________________________________________________________________________________________________
sequential_2 (Sequential)       (None, 100)          1916000     input_2[0][0]                    
__________________________________________________________________________________________________
concatenate_9 (Concatenate)     (None, 200)          0           sequential_1[1][0]               
                                                                 sequential_2[1][0]               
__________________________________________________________________________________________________
sequential_3 (Sequential)       (None, 1)            20201       concatenate_9[0][0]              
==================================================================================================
Total params: 3,852,201
Trainable params: 70,401
Non-trainable params: 3,781,800
__________________________________________________________________________________________________
MODEL FIT 1 feat
Epoch 1/100000
 - 16s - loss: 0.2626 - acc: 0.9063
	map_score_filtered = 0.4583
…
 - 13s - loss: 0.1482 - acc: 0.9512
	map_score_filtered = 0.6797
Epoch 15/100000
 - 13s - loss: 0.1428 - acc: 0.9520
	map_score_filtered = 0.6744

0.6213034660447239
0.23767323066155302


##################### MODEL WITH FT ONLY - NO UPDATE #####################
22:56.01
__________________________________________________________________________________________________
Layer (type)                    Output Shape         Param #     Connected to                     
==================================================================================================
input_1 (InputLayer)            (None, 40)           0                                            
__________________________________________________________________________________________________
input_2 (InputLayer)            (None, 40)           0                                            
__________________________________________________________________________________________________
sequential_7 (Sequential)       (None, 100)          10137400    input_1[0][0]                    
__________________________________________________________________________________________________
sequential_8 (Sequential)       (None, 100)          10137400    input_2[0][0]                    
__________________________________________________________________________________________________
concatenate_10 (Concatenate)    (None, 200)          0           sequential_7[1][0]               
                                                                 sequential_8[1][0]               
__________________________________________________________________________________________________
sequential_9 (Sequential)       (None, 1)            20201       concatenate_10[0][0]             
==================================================================================================
Total params: 20,295,001
Trainable params: 320,401
Non-trainable params: 19,974,600
__________________________________________________________________________________________________
MODEL FIT 1 feat
Epoch 1/100000
 - 34s - loss: 0.2283 - acc: 0.9300
	map_score_filtered = 0.5763
…
 - 34s - loss: 0.0472 - acc: 0.9877
	map_score_filtered = 0.6850
Epoch 15/100000
 - 35s - loss: 0.0356 - acc: 0.9922
	map_score_filtered = 0.6729

0.6444511769987451
0.2465281486614247


##################### MODEL WITH W2V & POS - NO UPDATE #####################
23:05.06
__________________________________________________________________________________________________
Layer (type)                    Output Shape         Param #     Connected to                     
==================================================================================================
input_1 (InputLayer)            (None, 40)           0                                            
__________________________________________________________________________________________________
input_3 (InputLayer)            (None, 40)           0                                            
__________________________________________________________________________________________________
input_2 (InputLayer)            (None, 40)           0                                            
__________________________________________________________________________________________________
input_4 (InputLayer)            (None, 40)           0                                            
__________________________________________________________________________________________________
sequential_13 (Sequential)      (None, 40, 50)       1890900     input_1[0][0]                    
__________________________________________________________________________________________________
sequential_14 (Sequential)      (None, 40, 20)       1060        input_3[0][0]                    
__________________________________________________________________________________________________
sequential_16 (Sequential)      (None, 40, 50)       1890900     input_2[0][0]                    
__________________________________________________________________________________________________
sequential_17 (Sequential)      (None, 40, 20)       1060        input_4[0][0]                    
__________________________________________________________________________________________________
concatenate_11 (Concatenate)    (None, 40, 70)       0           sequential_13[1][0]              
                                                                 sequential_14[1][0]              
__________________________________________________________________________________________________
concatenate_12 (Concatenate)    (None, 40, 70)       0           sequential_16[1][0]              
                                                                 sequential_17[1][0]              
__________________________________________________________________________________________________
sequential_15 (Sequential)      (None, 100)          35100       concatenate_11[0][0]             
__________________________________________________________________________________________________
sequential_18 (Sequential)      (None, 100)          35100       concatenate_12[0][0]             
__________________________________________________________________________________________________
concatenate_13 (Concatenate)    (None, 200)          0           sequential_15[1][0]              
                                                                 sequential_18[1][0]              
__________________________________________________________________________________________________
sequential_19 (Sequential)      (None, 1)            20201       concatenate_13[0][0]             
==================================================================================================
Total params: 3,874,321
Trainable params: 90,401
Non-trainable params: 3,783,920
__________________________________________________________________________________________________
Epoch 1/100000
 - 11s - loss: 0.2785 - acc: 0.9473
	map_score_filtered = 0.3545
	Best map_score_filtered: 0.3545
…
 - 11s - loss: 0.1847 - acc: 0.9488
	map_score_filtered = 0.6020
Epoch 9/100000
 - 11s - loss: 0.1835 - acc: 0.9491
	map_score_filtered = 0.6156

0.5622733486873285
0.21509186830737495


##################### MODEL WITH W2V & BROWN CLUSTERS - NO UPDATE #####################
23:06.53
__________________________________________________________________________________________________
Layer (type)                    Output Shape         Param #     Connected to                     
==================================================================================================
input_1 (InputLayer)            (None, 40)           0                                            
__________________________________________________________________________________________________
input_3 (InputLayer)            (None, 40)           0                                            
__________________________________________________________________________________________________
input_2 (InputLayer)            (None, 40)           0                                            
__________________________________________________________________________________________________
input_4 (InputLayer)            (None, 40)           0                                            
__________________________________________________________________________________________________
sequential_27 (Sequential)      (None, 40, 50)       1890900     input_1[0][0]                    
__________________________________________________________________________________________________
sequential_28 (Sequential)      (None, 40, 20)       20000       input_3[0][0]                    
__________________________________________________________________________________________________
sequential_30 (Sequential)      (None, 40, 50)       1890900     input_2[0][0]                    
__________________________________________________________________________________________________
sequential_31 (Sequential)      (None, 40, 20)       20000       input_4[0][0]                    
__________________________________________________________________________________________________
concatenate_14 (Concatenate)    (None, 40, 70)       0           sequential_27[1][0]              
                                                                 sequential_28[1][0]              
__________________________________________________________________________________________________
concatenate_15 (Concatenate)    (None, 40, 70)       0           sequential_30[1][0]              
                                                                 sequential_31[1][0]              
__________________________________________________________________________________________________
sequential_29 (Sequential)      (None, 100)          35100       concatenate_14[0][0]             
__________________________________________________________________________________________________
sequential_32 (Sequential)      (None, 100)          35100       concatenate_15[0][0]             
__________________________________________________________________________________________________
concatenate_16 (Concatenate)    (None, 200)          0           sequential_29[1][0]              
                                                                 sequential_32[1][0]              
__________________________________________________________________________________________________
sequential_33 (Sequential)      (None, 1)            20201       concatenate_16[0][0]             
==================================================================================================
Total params: 3,912,201
Trainable params: 90,401
Non-trainable params: 3,821,800
__________________________________________________________________________________________________
Epoch 1/100000
 - 11s - loss: 0.2928 - acc: 0.9418
	map_score_filtered = 0.3467
	Best map_score_filtered: 0.3467
…
 - 21s - loss: 0.0055 - acc: 0.9981
	map_score_filtered = 0.5267
Epoch 32/100000
 - 21s - loss: 0.0058 - acc: 0.9976
	map_score_filtered = 0.5308

0.614791187428706
0.23518202566717158


##################### MODEL WITH W2V & OV - WITH UPDATE #####################
01:02.33
__________________________________________________________________________________________________
Layer (type)                    Output Shape         Param #     Connected to                     
==================================================================================================
input_7 (InputLayer)            (None, 40)           0                                            
__________________________________________________________________________________________________
input_1 (InputLayer)            (None, 40)           0                                            
__________________________________________________________________________________________________
input_8 (InputLayer)            (None, 40)           0                                            
__________________________________________________________________________________________________
input_2 (InputLayer)            (None, 40)           0                                            
__________________________________________________________________________________________________
embedding_17 (Embedding)        (None, 40, 5)        15          input_7[0][0]                    
__________________________________________________________________________________________________
embedding_19 (Embedding)        (None, 40, 50)       1890900     input_1[0][0]                    
__________________________________________________________________________________________________
embedding_18 (Embedding)        (None, 40, 5)        15          input_8[0][0]                    
__________________________________________________________________________________________________
embedding_20 (Embedding)        (None, 40, 50)       1890900     input_2[0][0]                    
__________________________________________________________________________________________________
concatenate_1 (Concatenate)     (None, 40, 55)       0           embedding_17[0][0]               
                                                                 embedding_19[0][0]               
__________________________________________________________________________________________________
concatenate_2 (Concatenate)     (None, 40, 55)       0           embedding_18[0][0]               
                                                                 embedding_20[0][0]               
__________________________________________________________________________________________________
sequential_107 (Sequential)     (None, 100)          27600       concatenate_1[0][0]              
__________________________________________________________________________________________________
sequential_108 (Sequential)     (None, 100)          27600       concatenate_2[0][0]              
__________________________________________________________________________________________________
input_9 (InputLayer)            (None, 1)            0                                            
__________________________________________________________________________________________________
concatenate_30 (Concatenate)    (None, 201)          0           sequential_107[1][0]             
                                                                 sequential_108[1][0]             
                                                                 input_9[0][0]                    
__________________________________________________________________________________________________
sequential_109 (Sequential)     (None, 1)            20301       concatenate_30[0][0]             
==================================================================================================
Total params: 3,857,331
Trainable params: 3,857,331
Non-trainable params: 0
__________________________________________________________________________________________________
Epoch 1/100000
 - 23s - loss: 0.2391 - acc: 0.9352
	map_score_filtered = 0.4534
	Best map_score_filtered: 0.4534
…
 - 20s - loss: 0.0768 - acc: 0.9720
	map_score_filtered = 0.7105
Epoch 16/100000
 - 21s - loss: 0.0655 - acc: 0.9777
	map_score_filtered = 0.7031

0.6721593184473209
0.2571276122949276


##################### MODEL WITH W2V & POS & OV - WITH UPDATE #####################
01:08.29
__________________________________________________________________________________________________
Layer (type)                    Output Shape         Param #     Connected to                     
==================================================================================================
input_7 (InputLayer)            (None, 40)           0                                            
__________________________________________________________________________________________________
input_1 (InputLayer)            (None, 40)           0                                            
__________________________________________________________________________________________________
input_8 (InputLayer)            (None, 40)           0                                            
__________________________________________________________________________________________________
input_2 (InputLayer)            (None, 40)           0                                            
__________________________________________________________________________________________________
embedding_17 (Embedding)        (None, 40, 5)        15          input_7[0][0]                    
__________________________________________________________________________________________________
embedding_19 (Embedding)        (None, 40, 50)       1890900     input_1[0][0]                    
__________________________________________________________________________________________________
input_3 (InputLayer)            (None, 40)           0                                            
__________________________________________________________________________________________________
embedding_18 (Embedding)        (None, 40, 5)        15          input_8[0][0]                    
__________________________________________________________________________________________________
embedding_20 (Embedding)        (None, 40, 50)       1890900     input_2[0][0]                    
__________________________________________________________________________________________________
input_4 (InputLayer)            (None, 40)           0                                            
__________________________________________________________________________________________________
concatenate_1 (Concatenate)     (None, 40, 55)       0           embedding_17[0][0]               
                                                                 embedding_19[0][0]               
__________________________________________________________________________________________________
sequential_113 (Sequential)     (None, 40, 20)       1060        input_3[0][0]                    
__________________________________________________________________________________________________
concatenate_2 (Concatenate)     (None, 40, 55)       0           embedding_18[0][0]               
                                                                 embedding_20[0][0]               
__________________________________________________________________________________________________
sequential_115 (Sequential)     (None, 40, 20)       1060        input_4[0][0]                    
__________________________________________________________________________________________________
concatenate_31 (Concatenate)    (None, 40, 75)       0           concatenate_1[0][0]              
                                                                 sequential_113[1][0]             
__________________________________________________________________________________________________
concatenate_32 (Concatenate)    (None, 40, 75)       0           concatenate_2[0][0]              
                                                                 sequential_115[1][0]             
__________________________________________________________________________________________________
sequential_114 (Sequential)     (None, 100)          37600       concatenate_31[0][0]             
__________________________________________________________________________________________________
sequential_116 (Sequential)     (None, 100)          37600       concatenate_32[0][0]             
__________________________________________________________________________________________________
input_9 (InputLayer)            (None, 1)            0                                            
__________________________________________________________________________________________________
concatenate_33 (Concatenate)    (None, 201)          0           sequential_114[1][0]             
                                                                 sequential_116[1][0]             
                                                                 input_9[0][0]                    
__________________________________________________________________________________________________
sequential_117 (Sequential)     (None, 1)            20301       concatenate_33[0][0]             
==================================================================================================
Total params: 3,879,451
Trainable params: 3,879,451
Non-trainable params: 0
__________________________________________________________________________________________________
Epoch 1/100000
 - 21s - loss: 0.2610 - acc: 0.9449
	map_score_filtered = 0.4293
	Best map_score_filtered: 0.4293
…
 - 19s - loss: 0.1254 - acc: 0.9554
	map_score_filtered = 0.6625
Epoch 10/100000
 - 19s - loss: 0.1146 - acc: 0.9586
	map_score_filtered = 0.6521

0.6529306673897071
0.24977189022368176


##################### MODEL WITH W2V & BROWN CLUSTERS & OV - WITH UPDATE #####################
01:11.56
__________________________________________________________________________________________________
Layer (type)                    Output Shape         Param #     Connected to                     
==================================================================================================
input_7 (InputLayer)            (None, 40)           0                                            
__________________________________________________________________________________________________
input_1 (InputLayer)            (None, 40)           0                                            
__________________________________________________________________________________________________
input_8 (InputLayer)            (None, 40)           0                                            
__________________________________________________________________________________________________
input_2 (InputLayer)            (None, 40)           0                                            
__________________________________________________________________________________________________
embedding_17 (Embedding)        (None, 40, 5)        15          input_7[0][0]                    
__________________________________________________________________________________________________
embedding_19 (Embedding)        (None, 40, 50)       1890900     input_1[0][0]                    
__________________________________________________________________________________________________
input_3 (InputLayer)            (None, 40)           0                                            
__________________________________________________________________________________________________
embedding_18 (Embedding)        (None, 40, 5)        15          input_8[0][0]                    
__________________________________________________________________________________________________
embedding_20 (Embedding)        (None, 40, 50)       1890900     input_2[0][0]                    
__________________________________________________________________________________________________
input_4 (InputLayer)            (None, 40)           0                                            
__________________________________________________________________________________________________
concatenate_1 (Concatenate)     (None, 40, 55)       0           embedding_17[0][0]               
                                                                 embedding_19[0][0]               
__________________________________________________________________________________________________
sequential_123 (Sequential)     (None, 40, 20)       20000       input_3[0][0]                    
__________________________________________________________________________________________________
concatenate_2 (Concatenate)     (None, 40, 55)       0           embedding_18[0][0]               
                                                                 embedding_20[0][0]               
__________________________________________________________________________________________________
sequential_125 (Sequential)     (None, 40, 20)       20000       input_4[0][0]                    
__________________________________________________________________________________________________
concatenate_34 (Concatenate)    (None, 40, 75)       0           concatenate_1[0][0]              
                                                                 sequential_123[1][0]             
__________________________________________________________________________________________________
concatenate_35 (Concatenate)    (None, 40, 75)       0           concatenate_2[0][0]              
                                                                 sequential_125[1][0]             
__________________________________________________________________________________________________
sequential_124 (Sequential)     (None, 100)          37600       concatenate_34[0][0]             
__________________________________________________________________________________________________
sequential_126 (Sequential)     (None, 100)          37600       concatenate_35[0][0]             
__________________________________________________________________________________________________
input_9 (InputLayer)            (None, 1)            0                                            
__________________________________________________________________________________________________
concatenate_36 (Concatenate)    (None, 201)          0           sequential_124[1][0]             
                                                                 sequential_126[1][0]             
                                                                 input_9[0][0]                    
__________________________________________________________________________________________________
sequential_127 (Sequential)     (None, 1)            20301       concatenate_36[0][0]             
==================================================================================================
Total params: 3,917,331
Trainable params: 3,917,331
Non-trainable params: 0
__________________________________________________________________________________________________
Epoch 1/100000
 - 20s - loss: 0.2475 - acc: 0.9424
	map_score_filtered = 0.6237
	Best map_score_filtered: 0.6237
…
Epoch 6/100000
 - 18s - loss: 0.1042 - acc: 0.9620
	map_score_filtered = 0.6544
Epoch 7/100000
 - 17s - loss: 0.0905 - acc: 0.9668
	map_score_filtered = 0.6420

0.6378457205940082
0.24400129946532712


##################### MODEL WITH ALL - WITH UPDATE #####################
01:14.22
__________________________________________________________________________________________________
Layer (type)                    Output Shape         Param #     Connected to                     
==================================================================================================
input_7 (InputLayer)            (None, 40)           0                                            
__________________________________________________________________________________________________
input_1 (InputLayer)            (None, 40)           0                                            
__________________________________________________________________________________________________
input_8 (InputLayer)            (None, 40)           0                                            
__________________________________________________________________________________________________
input_2 (InputLayer)            (None, 40)           0                                            
__________________________________________________________________________________________________
embedding_17 (Embedding)        (None, 40, 5)        15          input_7[0][0]                    
__________________________________________________________________________________________________
embedding_19 (Embedding)        (None, 40, 50)       1890900     input_1[0][0]                    
__________________________________________________________________________________________________
input_3 (InputLayer)            (None, 40)           0                                            
__________________________________________________________________________________________________
input_5 (InputLayer)            (None, 40)           0                                            
__________________________________________________________________________________________________
embedding_18 (Embedding)        (None, 40, 5)        15          input_8[0][0]                    
__________________________________________________________________________________________________
embedding_20 (Embedding)        (None, 40, 50)       1890900     input_2[0][0]                    
__________________________________________________________________________________________________
input_4 (InputLayer)            (None, 40)           0                                            
__________________________________________________________________________________________________
input_6 (InputLayer)            (None, 40)           0                                            
__________________________________________________________________________________________________
concatenate_1 (Concatenate)     (None, 40, 55)       0           embedding_17[0][0]               
                                                                 embedding_19[0][0]               
__________________________________________________________________________________________________
sequential_133 (Sequential)     (None, 40, 20)       1060        input_3[0][0]                    
__________________________________________________________________________________________________
sequential_134 (Sequential)     (None, 40, 20)       20000       input_5[0][0]                    
__________________________________________________________________________________________________
concatenate_2 (Concatenate)     (None, 40, 55)       0           embedding_18[0][0]               
                                                                 embedding_20[0][0]               
__________________________________________________________________________________________________
sequential_136 (Sequential)     (None, 40, 20)       1060        input_4[0][0]                    
__________________________________________________________________________________________________
sequential_137 (Sequential)     (None, 40, 20)       20000       input_6[0][0]                    
__________________________________________________________________________________________________
concatenate_37 (Concatenate)    (None, 40, 95)       0           concatenate_1[0][0]              
                                                                 sequential_133[1][0]             
                                                                 sequential_134[1][0]             
__________________________________________________________________________________________________
concatenate_38 (Concatenate)    (None, 40, 95)       0           concatenate_2[0][0]              
                                                                 sequential_136[1][0]             
                                                                 sequential_137[1][0]             
__________________________________________________________________________________________________
sequential_135 (Sequential)     (None, 100)          47600       concatenate_37[0][0]             
__________________________________________________________________________________________________
sequential_138 (Sequential)     (None, 100)          47600       concatenate_38[0][0]             
__________________________________________________________________________________________________
input_9 (InputLayer)            (None, 1)            0                                            
__________________________________________________________________________________________________
concatenate_39 (Concatenate)    (None, 201)          0           sequential_135[1][0]             
                                                                 sequential_138[1][0]             
                                                                 input_9[0][0]                    
__________________________________________________________________________________________________
sequential_139 (Sequential)     (None, 1)            20301       concatenate_39[0][0]             
==================================================================================================
Total params: 3,939,451
Trainable params: 3,939,451
Non-trainable params: 0
__________________________________________________________________________________________________
Epoch 1/100000
 - 21s - loss: 0.2370 - acc: 0.9488
	map_score_filtered = 0.5501
	Best map_score_filtered: 0.5501
…
