#################################### BASELINE - W2V - NO UPDATE #################################
22:23.07
__________________________________________________________________________________________________
Layer (type)                    Output Shape         Param #     Connected to                     
==================================================================================================
input_1 (InputLayer)            (None, 40)           0                                            
__________________________________________________________________________________________________
input_2 (InputLayer)            (None, 40)           0                                            
__________________________________________________________________________________________________
sequential_1 (Sequential)       (None, 100)          2118550     input_1[0][0]                    
__________________________________________________________________________________________________
sequential_2 (Sequential)       (None, 100)          2118550     input_2[0][0]                    
__________________________________________________________________________________________________
concatenate_9 (Concatenate)     (None, 200)          0           sequential_1[1][0]               
                                                                 sequential_2[1][0]               
__________________________________________________________________________________________________
sequential_3 (Sequential)       (None, 1)            20201       concatenate_9[0][0]              
==================================================================================================
Total params: 4,257,301
Trainable params: 70,401
Non-trainable params: 4,186,900
__________________________________________________________________________________________________
MODEL FIT 1 feat
Epoch 1/100000
 - 13s - loss: 0.2629 - acc: 0.9061
	map_score_filtered = 0.4577
…
 - 53s - loss: 0.0040 - acc: 0.9985
	map_score_filtered = 0.5907
Epoch 39/100000
 - 52s - loss: 0.0043 - acc: 0.9987
	map_score_filtered = 0.6069

0.620291207600482
0.23728600163764474


################################## BASELINE - FT - NO UPDATE ####################################
23:27.12
__________________________________________________________________________________________________
Layer (type)                    Output Shape         Param #     Connected to                     
==================================================================================================
input_1 (InputLayer)            (None, 40)           0                                            
__________________________________________________________________________________________________
input_2 (InputLayer)            (None, 40)           0                                            
__________________________________________________________________________________________________
sequential_25 (Sequential)      (None, 100)          12710800    input_1[0][0]                    
__________________________________________________________________________________________________
sequential_26 (Sequential)      (None, 100)          12710800    input_2[0][0]                    
__________________________________________________________________________________________________
concatenate_13 (Concatenate)    (None, 200)          0           sequential_25[1][0]              
                                                                 sequential_26[1][0]              
__________________________________________________________________________________________________
sequential_27 (Sequential)      (None, 1)            20201       concatenate_13[0][0]             
==================================================================================================
Total params: 25,441,801
Trainable params: 320,401
Non-trainable params: 25,121,400
__________________________________________________________________________________________________
MODEL FIT 1 feat
Epoch 1/100000
 - 30s - loss: 0.2537 - acc: 0.9151
	map_score_filtered = 0.4222
…
 - 382s - loss: 0.0293 - acc: 0.9933
	map_score_filtered = 0.5626
Epoch 11/100000
 - 381s - loss: 0.0200 - acc: 0.9965
	map_score_filtered = 0.5539

0.5765432119171825
0.22055065725720774


################################## OVERLAP - W2V - WITH UPDATE ##################################
10:16.26
__________________________________________________________________________________________________
Layer (type)                    Output Shape         Param #     Connected to                     
==================================================================================================
input_7 (InputLayer)            (None, 40)           0                                            
__________________________________________________________________________________________________
input_1 (InputLayer)            (None, 40)           0                                            
__________________________________________________________________________________________________
input_8 (InputLayer)            (None, 40)           0                                            
__________________________________________________________________________________________________
input_2 (InputLayer)            (None, 40)           0                                            
__________________________________________________________________________________________________
embedding_17 (Embedding)        (None, 40, 5)        15          input_7[0][0]                    
__________________________________________________________________________________________________
embedding_19 (Embedding)        (None, 40, 50)       2093450     input_1[0][0]                    
__________________________________________________________________________________________________
embedding_18 (Embedding)        (None, 40, 5)        15          input_8[0][0]                    
__________________________________________________________________________________________________
embedding_20 (Embedding)        (None, 40, 50)       2093450     input_2[0][0]                    
__________________________________________________________________________________________________
concatenate_1 (Concatenate)     (None, 40, 55)       0           embedding_17[0][0]               
                                                                 embedding_19[0][0]               
__________________________________________________________________________________________________
concatenate_2 (Concatenate)     (None, 40, 55)       0           embedding_18[0][0]               
                                                                 embedding_20[0][0]               
__________________________________________________________________________________________________
sequential_1 (Sequential)       (None, 100)          27600       concatenate_1[0][0]              
__________________________________________________________________________________________________
sequential_2 (Sequential)       (None, 100)          27600       concatenate_2[0][0]              
__________________________________________________________________________________________________
input_9 (InputLayer)            (None, 1)            0                                            
__________________________________________________________________________________________________
concatenate_9 (Concatenate)     (None, 201)          0           sequential_1[1][0]               
                                                                 sequential_2[1][0]               
                                                                 input_9[0][0]                    
__________________________________________________________________________________________________
sequential_3 (Sequential)       (None, 1)            20301       concatenate_9[0][0]              
==================================================================================================
Total params: 4,262,431
Trainable params: 4,262,431
Non-trainable params: 0
__________________________________________________________________________________________________
Epoch 1/100000
 - 72s - loss: 0.2394 - acc: 0.9348
	map_score_filtered = 0.4453
	Best map_score_filtered: 0.4453
…
 - 69s - loss: 0.0770 - acc: 0.9716
	map_score_filtered = 0.7063
Epoch 16/100000
 - 69s - loss: 0.0657 - acc: 0.9769
	map_score_filtered = 0.7069

0.6653098735912597
0.2545074278341166


############################### ONE FEAT - W2V & POS - NO UPDATE ################################
10:35.13
__________________________________________________________________________________________________
Layer (type)                    Output Shape         Param #     Connected to                     
==================================================================================================
input_1 (InputLayer)            (None, 40)           0                                            
__________________________________________________________________________________________________
input_3 (InputLayer)            (None, 40)           0                                            
__________________________________________________________________________________________________
input_2 (InputLayer)            (None, 40)           0                                            
__________________________________________________________________________________________________
input_4 (InputLayer)            (None, 40)           0                                            
__________________________________________________________________________________________________
sequential_7 (Sequential)       (None, 40, 50)       2093450     input_1[0][0]                    
__________________________________________________________________________________________________
sequential_8 (Sequential)       (None, 40, 20)       1060        input_3[0][0]                    
__________________________________________________________________________________________________
sequential_10 (Sequential)      (None, 40, 50)       2093450     input_2[0][0]                    
__________________________________________________________________________________________________
sequential_11 (Sequential)      (None, 40, 20)       1060        input_4[0][0]                    
__________________________________________________________________________________________________
concatenate_10 (Concatenate)    (None, 40, 70)       0           sequential_7[1][0]               
                                                                 sequential_8[1][0]               
__________________________________________________________________________________________________
concatenate_11 (Concatenate)    (None, 40, 70)       0           sequential_10[1][0]              
                                                                 sequential_11[1][0]              
__________________________________________________________________________________________________
sequential_9 (Sequential)       (None, 100)          35100       concatenate_10[0][0]             
__________________________________________________________________________________________________
sequential_12 (Sequential)      (None, 100)          35100       concatenate_11[0][0]             
__________________________________________________________________________________________________
concatenate_12 (Concatenate)    (None, 200)          0           sequential_9[1][0]               
                                                                 sequential_12[1][0]              
__________________________________________________________________________________________________
sequential_13 (Sequential)      (None, 1)            20201       concatenate_12[0][0]             
==================================================================================================
Total params: 4,279,421
Trainable params: 90,401
Non-trainable params: 4,189,020
__________________________________________________________________________________________________
Epoch 1/100000
 - 13s - loss: 0.2894 - acc: 0.9434
	map_score_filtered = 0.3604
	Best map_score_filtered: 0.3604
…
 - 59s - loss: 0.0068 - acc: 0.9974
	map_score_filtered = 0.5379
Epoch 33/100000
 - 60s - loss: 0.0061 - acc: 0.9979
	map_score_filtered = 0.5305

0.6002020695668061
0.22960110915174647


########################### ONE FEAT - W2V & BROWN CLUSTERS - NO UPDATE ###########################
11:39.58
__________________________________________________________________________________________________
Layer (type)                    Output Shape         Param #     Connected to                     
==================================================================================================
input_1 (InputLayer)            (None, 40)           0                                            
__________________________________________________________________________________________________
input_3 (InputLayer)            (None, 40)           0                                            
__________________________________________________________________________________________________
input_2 (InputLayer)            (None, 40)           0                                            
__________________________________________________________________________________________________
input_4 (InputLayer)            (None, 40)           0                                            
__________________________________________________________________________________________________
sequential_63 (Sequential)      (None, 40, 50)       2093450     input_1[0][0]                    
__________________________________________________________________________________________________
sequential_64 (Sequential)      (None, 40, 20)       20000       input_3[0][0]                    
__________________________________________________________________________________________________
sequential_66 (Sequential)      (None, 40, 50)       2093450     input_2[0][0]                    
__________________________________________________________________________________________________
sequential_67 (Sequential)      (None, 40, 20)       20000       input_4[0][0]                    
__________________________________________________________________________________________________
concatenate_22 (Concatenate)    (None, 40, 70)       0           sequential_63[1][0]              
                                                                 sequential_64[1][0]              
__________________________________________________________________________________________________
concatenate_23 (Concatenate)    (None, 40, 70)       0           sequential_66[1][0]              
                                                                 sequential_67[1][0]              
__________________________________________________________________________________________________
sequential_65 (Sequential)      (None, 100)          35100       concatenate_22[0][0]             
__________________________________________________________________________________________________
sequential_68 (Sequential)      (None, 100)          35100       concatenate_23[0][0]             
__________________________________________________________________________________________________
concatenate_24 (Concatenate)    (None, 200)          0           sequential_65[1][0]              
                                                                 sequential_68[1][0]              
__________________________________________________________________________________________________
sequential_69 (Sequential)      (None, 1)            20201       concatenate_24[0][0]             
==================================================================================================
Total params: 4,317,301
Trainable params: 90,401
Non-trainable params: 4,226,900
__________________________________________________________________________________________________
Epoch 1/100000
 - 10s - loss: 0.2955 - acc: 0.9384
	map_score_filtered = 0.3460
	Best map_score_filtered: 0.3460
…
 - 53s - loss: 0.0068 - acc: 0.9977
	map_score_filtered = 0.5318
Epoch 33/100000
 - 53s - loss: 0.0061 - acc: 0.9980
	map_score_filtered = 0.5383

0.6014332701694521
0.23007209223942549


########################### ONE FEAT OVERLAP - W2V & POS - WITH UPDATE ############################
11:42.37
__________________________________________________________________________________________________
Layer (type)                    Output Shape         Param #     Connected to                     
==================================================================================================
input_7 (InputLayer)            (None, 40)           0                                            
__________________________________________________________________________________________________
input_1 (InputLayer)            (None, 40)           0                                            
__________________________________________________________________________________________________
input_8 (InputLayer)            (None, 40)           0                                            
__________________________________________________________________________________________________
input_2 (InputLayer)            (None, 40)           0                                            
__________________________________________________________________________________________________
embedding_17 (Embedding)        (None, 40, 5)        15          input_7[0][0]                    
__________________________________________________________________________________________________
embedding_19 (Embedding)        (None, 40, 50)       2093450     input_1[0][0]                    
__________________________________________________________________________________________________
input_3 (InputLayer)            (None, 40)           0                                            
__________________________________________________________________________________________________
embedding_18 (Embedding)        (None, 40, 5)        15          input_8[0][0]                    
__________________________________________________________________________________________________
embedding_20 (Embedding)        (None, 40, 50)       2093450     input_2[0][0]                    
__________________________________________________________________________________________________
input_4 (InputLayer)            (None, 40)           0                                            
__________________________________________________________________________________________________
concatenate_1 (Concatenate)     (None, 40, 55)       0           embedding_17[0][0]               
                                                                 embedding_19[0][0]               
__________________________________________________________________________________________________
sequential_77 (Sequential)      (None, 40, 20)       1060        input_3[0][0]                    
__________________________________________________________________________________________________
concatenate_2 (Concatenate)     (None, 40, 55)       0           embedding_18[0][0]               
                                                                 embedding_20[0][0]               
__________________________________________________________________________________________________
sequential_79 (Sequential)      (None, 40, 20)       1060        input_4[0][0]                    
__________________________________________________________________________________________________
concatenate_25 (Concatenate)    (None, 40, 75)       0           concatenate_1[0][0]              
                                                                 sequential_77[1][0]              
__________________________________________________________________________________________________
concatenate_26 (Concatenate)    (None, 40, 75)       0           concatenate_2[0][0]              
                                                                 sequential_79[1][0]              
__________________________________________________________________________________________________
sequential_78 (Sequential)      (None, 100)          37600       concatenate_25[0][0]             
__________________________________________________________________________________________________
sequential_80 (Sequential)      (None, 100)          37600       concatenate_26[0][0]             
__________________________________________________________________________________________________
input_9 (InputLayer)            (None, 1)            0                                            
__________________________________________________________________________________________________
concatenate_27 (Concatenate)    (None, 201)          0           sequential_78[1][0]              
                                                                 sequential_80[1][0]              
                                                                 input_9[0][0]                    
__________________________________________________________________________________________________
sequential_81 (Sequential)      (None, 1)            20301       concatenate_27[0][0]             
==================================================================================================
Total params: 4,284,551
Trainable params: 4,284,551
Non-trainable params: 0
__________________________________________________________________________________________________
Epoch 1/100000
 - 46s - loss: 0.2629 - acc: 0.9438
	map_score_filtered = 0.4470
	Best map_score_filtered: 0.4470
…
 - 44s - loss: 0.1448 - acc: 0.9514
	map_score_filtered = 0.6696
Epoch 8/100000
 - 45s - loss: 0.1347 - acc: 0.9537
	map_score_filtered = 0.6774

0.6280295549297135
0.2402462265683507


###################### ONE FEAT OVERLAP - W2V & BROWN CLUSTERS - WITH UPDATE ######################
11:48.49
__________________________________________________________________________________________________
Layer (type)                    Output Shape         Param #     Connected to                     
==================================================================================================
input_7 (InputLayer)            (None, 40)           0                                            
__________________________________________________________________________________________________
input_1 (InputLayer)            (None, 40)           0                                            
__________________________________________________________________________________________________
input_8 (InputLayer)            (None, 40)           0                                            
__________________________________________________________________________________________________
input_2 (InputLayer)            (None, 40)           0                                            
__________________________________________________________________________________________________
embedding_17 (Embedding)        (None, 40, 5)        15          input_7[0][0]                    
__________________________________________________________________________________________________
embedding_19 (Embedding)        (None, 40, 50)       2093450     input_1[0][0]                    
__________________________________________________________________________________________________
input_3 (InputLayer)            (None, 40)           0                                            
__________________________________________________________________________________________________
embedding_18 (Embedding)        (None, 40, 5)        15          input_8[0][0]                    
__________________________________________________________________________________________________
embedding_20 (Embedding)        (None, 40, 50)       2093450     input_2[0][0]                    
__________________________________________________________________________________________________
input_4 (InputLayer)            (None, 40)           0                                            
__________________________________________________________________________________________________
concatenate_1 (Concatenate)     (None, 40, 55)       0           embedding_17[0][0]               
                                                                 embedding_19[0][0]               
__________________________________________________________________________________________________
sequential_87 (Sequential)      (None, 40, 20)       20000       input_3[0][0]                    
__________________________________________________________________________________________________
concatenate_2 (Concatenate)     (None, 40, 55)       0           embedding_18[0][0]               
                                                                 embedding_20[0][0]               
__________________________________________________________________________________________________
sequential_89 (Sequential)      (None, 40, 20)       20000       input_4[0][0]                    
__________________________________________________________________________________________________
concatenate_28 (Concatenate)    (None, 40, 75)       0           concatenate_1[0][0]              
                                                                 sequential_87[1][0]              
__________________________________________________________________________________________________
concatenate_29 (Concatenate)    (None, 40, 75)       0           concatenate_2[0][0]              
                                                                 sequential_89[1][0]              
__________________________________________________________________________________________________
sequential_88 (Sequential)      (None, 100)          37600       concatenate_28[0][0]             
__________________________________________________________________________________________________
sequential_90 (Sequential)      (None, 100)          37600       concatenate_29[0][0]             
__________________________________________________________________________________________________
input_9 (InputLayer)            (None, 1)            0                                            
__________________________________________________________________________________________________
concatenate_30 (Concatenate)    (None, 201)          0           sequential_88[1][0]              
                                                                 sequential_90[1][0]              
                                                                 input_9[0][0]                    
__________________________________________________________________________________________________
sequential_91 (Sequential)      (None, 1)            20301       concatenate_30[0][0]             
==================================================================================================
Total params: 4,322,431
Trainable params: 4,322,431
Non-trainable params: 0
__________________________________________________________________________________________________
Epoch 1/100000
 - 42s - loss: 0.2462 - acc: 0.9446
	map_score_filtered = 0.5816
	Best map_score_filtered: 0.5816
…
 - 40s - loss: 0.1128 - acc: 0.9605
	map_score_filtered = 0.6586
Epoch 7/100000
 - 41s - loss: 0.1002 - acc: 0.9630
	map_score_filtered = 0.6404

0.6268325984473022
0.23978834321555523


################################## COMPLETE MODEL - WITH UPDATE ###################################
11:53.48
__________________________________________________________________________________________________
Layer (type)                    Output Shape         Param #     Connected to                     
==================================================================================================
input_7 (InputLayer)            (None, 40)           0                                            
__________________________________________________________________________________________________
input_1 (InputLayer)            (None, 40)           0                                            
__________________________________________________________________________________________________
input_8 (InputLayer)            (None, 40)           0                                            
__________________________________________________________________________________________________
input_2 (InputLayer)            (None, 40)           0                                            
__________________________________________________________________________________________________
embedding_17 (Embedding)        (None, 40, 5)        15          input_7[0][0]                    
__________________________________________________________________________________________________
embedding_19 (Embedding)        (None, 40, 50)       2093450     input_1[0][0]                    
__________________________________________________________________________________________________
input_3 (InputLayer)            (None, 40)           0                                            
__________________________________________________________________________________________________
input_5 (InputLayer)            (None, 40)           0                                            
__________________________________________________________________________________________________
embedding_18 (Embedding)        (None, 40, 5)        15          input_8[0][0]                    
__________________________________________________________________________________________________
embedding_20 (Embedding)        (None, 40, 50)       2093450     input_2[0][0]                    
__________________________________________________________________________________________________
input_4 (InputLayer)            (None, 40)           0                                            
__________________________________________________________________________________________________
input_6 (InputLayer)            (None, 40)           0                                            
__________________________________________________________________________________________________
concatenate_1 (Concatenate)     (None, 40, 55)       0           embedding_17[0][0]               
                                                                 embedding_19[0][0]               
__________________________________________________________________________________________________
sequential_97 (Sequential)      (None, 40, 20)       1060        input_3[0][0]                    
__________________________________________________________________________________________________
sequential_98 (Sequential)      (None, 40, 20)       20000       input_5[0][0]                    
__________________________________________________________________________________________________
concatenate_2 (Concatenate)     (None, 40, 55)       0           embedding_18[0][0]               
                                                                 embedding_20[0][0]               
__________________________________________________________________________________________________
sequential_100 (Sequential)     (None, 40, 20)       1060        input_4[0][0]                    
__________________________________________________________________________________________________
sequential_101 (Sequential)     (None, 40, 20)       20000       input_6[0][0]                    
__________________________________________________________________________________________________
concatenate_31 (Concatenate)    (None, 40, 95)       0           concatenate_1[0][0]              
                                                                 sequential_97[1][0]              
                                                                 sequential_98[1][0]              
__________________________________________________________________________________________________
concatenate_32 (Concatenate)    (None, 40, 95)       0           concatenate_2[0][0]              
                                                                 sequential_100[1][0]             
                                                                 sequential_101[1][0]             
__________________________________________________________________________________________________
sequential_99 (Sequential)      (None, 100)          47600       concatenate_31[0][0]             
__________________________________________________________________________________________________
sequential_102 (Sequential)     (None, 100)          47600       concatenate_32[0][0]             
__________________________________________________________________________________________________
input_9 (InputLayer)            (None, 1)            0                                            
__________________________________________________________________________________________________
concatenate_33 (Concatenate)    (None, 201)          0           sequential_99[1][0]              
                                                                 sequential_102[1][0]             
                                                                 input_9[0][0]                    
__________________________________________________________________________________________________
sequential_103 (Sequential)     (None, 1)            20301       concatenate_33[0][0]             
==================================================================================================
Total params: 4,344,551
Trainable params: 4,344,551
Non-trainable params: 0
__________________________________________________________________________________________________
Epoch 1/100000
 - 42s - loss: 0.2352 - acc: 0.9489
	map_score_filtered = 0.5698
	Best map_score_filtered: 0.5698
…
